…
4  0          ['block2a_expand_bn[0][0]']      \n"," ivation)                       4)                                                                \n","                                                                                                  \n"," block2a_dwconv_pad (ZeroPaddin  (None, 113, 113, 14  0          ['block2a_expand_activation[0][0]\n"," g2D)                           4)                               ']                               \n","                                                                                                  \n"," block2a_dwconv (DepthwiseConv2  (None, 56, 56, 144)  1296       ['block2a_dwconv_pad[0][0]']     \n"," D)                                                                                               \n","                                                                                                  \n"," block2a_bn (BatchNormalization  (None, 56, 56, 144)  576        ['block2a_dwconv[0][0]']         \n"," )                                                                                                \n","                                                                                                  \n"," block2a_activation (Activation  (None, 56, 56, 144)  0          ['block2a_bn[0][0]']             \n"," )                                                                                                \n","                                                                                                  \n"," block2a_se_squeeze (GlobalAver  (None, 144)         0           ['block2a_activation[0][0]']     \n"," agePooling2D)                                                                                    \n","                                                                                                  \n"," block2a_se_reshape (Reshape)   (None, 1, 1, 144)    0           ['block2a_se_squeeze[0][0]']     \n","                                                                                                  \n"," block2a_se_reduce (Conv2D)     (None, 1, 1, 6)      870         ['block2a_se_reshape[0][0]']     \n","                                                                                                  \n"," block2a_se_expand (Conv2D)     (None, 1, 1, 144)    1008        ['block2a_se_reduce[0][0]']      \n","                                                                                                  \n"," block2a_se_excite (Multiply)   (None, 56, 56, 144)  0           ['block2a_activation[0][0]',     \n","                                                                  'block2a_se_expand[0][0]']      \n","                                                                                                  \n"," block2a_project_conv (Conv2D)  (None, 56, 56, 40)   5760        ['block2a_se_excite[0][0]']      \n","                                                                                                  \n"," block2a_project_bn (BatchNorma  (None, 56, 56, 40)  160         ['block2a_project_conv[0][0]']   \n"," lization)                                                                                        \n","                                                                                                  \n"," block2b_expand_conv (Conv2D)   (None, 56, 56, 240)  9600        ['block2a_project_bn[0][0]']     \n","                                                                                                  \n"," block2b_expand_bn (BatchNormal  (None, 56, 56, 240)  960        ['block2b_expand_conv[0][0]']    \n"," ization)                                                                                         \n","                                                                                                  \n"," block2b_expand_activation (Act  (None, 56, 56, 240)  0          ['block2b_expand_bn[0][0]']      \n"," ivation)                                                                                         \n","                                                                                                  \n"," block2b_dwconv (DepthwiseConv2  (None, 56, 56, 240)  2160       ['block2b_expand_activation[0][0]\n"," D)                                                              ']                               \n","                                                                                                  \n"," block2b_bn (BatchNormalization  (None, 56, 56, 240)  960        ['block2b_dwconv[0][0]']         \n"," )                                                                                                \n","                                                                                                  \n"," block2b_activation (Activation  (None, 56, 56, 240)  0          ['block2b_bn[0][0]']             \n"," )                                                                                                \n","                                                                                                  \n"," block2b_se_squeeze (GlobalAver  (None, 240)         0           ['block2b_activation[0][0]']     \n"," agePooling2D)                                                                                    \n","                                                                                                  \n"," block2b_se_reshape (Reshape)   (None, 1, 1, 240)    0           ['block2b_se_squeeze[0][0]']     \n","                                                                                                  \n"," block2b_se_reduce (Conv2D)     (None, 1, 1, 10)     2410        ['block2b_se_reshape[0][0]']     \n","                                                                                                  \n"," block2b_se_expand (Conv2D)     (None, 1, 1, 240)    2640        ['block2b_se_reduce[0][0]']      \n","                                                                                                  \n"," block2b_se_excite (Multiply)   (None, 56, 56, 240)  0           ['block2b_activation[0][0]',     \n","                                                                  'block2b_se_expand[0][0]']      \n","                                                                                                  \n"," block2b_project_conv (Conv2D)  (None, 56, 56, 40)   9600        ['block2b_se_excite[0][0]']      \n","                                                                                                  \n"," block2b_project_bn (BatchNorma  (None, 56, 56, 40)  160         ['block2b_project_conv[0][0]']   \n"," lization)                                                                                        \n","                                                                                                  \n"," block2b_drop (Dropout)         (None, 56, 56, 40)   0           ['block2b_project_bn[0][0]']     \n","                                                                                                  \n"," block2b_add (Add)              (None, 56, 56, 40)   0           ['block2b_drop[0][0]',           \n","                                                                  'block2a_project_bn[0][0]']     \n","                                                                                                  \n"," block2c_expand_conv (Conv2D)   (None, 56, 56, 240)  9600        ['block2b_add[0][0]']            \n","                                                                                                  \n"," block2c_expand_bn (BatchNormal  (None, 56, 56, 240)  960        ['block2c_expand_conv[0][0]']    \n"," ization)                                                                                         \n","                                                                                                  \n"," block2c_expand_activation (Act  (None, 56, 56, 240)  0          ['block2c_expand_bn[0][0]']      \n"," ivation)                                                                                         \n","                                                                                                  \n"," block2c_dwconv (DepthwiseConv2  (None, 56, 56, 240)  2160       ['block2c_expand_activation[0][0]\n"," D)                                                              ']                               \n","                                                                                                  \n"," block2c_bn (BatchNormalization  (None, 56, 56, 240)  960        ['block2c_dwconv[0][0]']         \n"," )                                                                                                \n","                                                                                                  \n"," block2c_activation (Activation  (None, 56, 56, 240)  0          ['block2c_bn[0][0]']             \n"," )                                                                                                \n","                                                                                                  \n"," block2c_se_squeeze (GlobalAver  (None, 240)         0           ['block2c_activation[0][0]']     \n"," agePooling2D)                                                                                    \n","                                                                                                  \n"," block2c_se_reshape (Reshape)   (None, 1, 1, 240)    0           ['block2c_se_squeeze[0][0]']     \n","                                                                                                  \n"," block2c_se_reduce (Conv2D)     (None, 1, 1, 10)     2410        ['block2c_se_reshape[0][0]']     \n","                                                                                                  \n"," block2c_se_expand (Conv2D)     (None, 1, 1, 240)    2640        ['block2c_se_reduce[0][0]']      \n","                                                                                                  \n"," block2c_se_excite (Multiply)   (None, 56, 56, 240)  0           ['block2c_activation[0][0]',     \n","                                                                  'block2c_se_expand[0][0]']      \n","                                                                                                  \n"," block2c_project_conv (Conv2D)  (None, 56, 56, 40)   9600        ['block2c_se_excite[0][0]']      \n","                                                                                                  \n"," block2c_project_bn (BatchNorma  (None, 56, 56, 40)  160         ['block2c_project_conv[0][0]']   \n"," lization)                                                                                        \n","                                                                                                  \n"," block2c_drop (Dropout)         (None, 56, 56, 40)   0           ['block2c_project_bn[0][0]']     \n","                                                                                                  \n"," block2c_add (Add)              (None, 56, 56, 40)   0           ['block2c_drop[0][0]',           \n","                                                                  'block2b_add[0][0]']            \n","                                                                                                  \n"," block2d_expand_conv (Conv2D)   (None, 56, 56, 240)  9600        ['block2c_add[0][0]']            \n","                                                                                                  \n"," block2d_expand_bn (BatchNormal  (None, 56, 56, 240)  960        ['block2d_expand_conv[0][0]']    \n"," ization)                                                                                         \n","                                                                                                  \n"," block2d_expand_activation (Act  (None, 56, 56, 240)  0          ['block2d_expand_bn[0][0]']      \n"," ivation)                                                                                         \n","                                                                                                  \n"," block2d_dwconv (DepthwiseConv2  (None, 56, 56, 240)  2160       ['block2d_expand_activation[0][0]\n"," D)                                                              ']                               \n","                                                                                                  \n"," block2d_bn (BatchNormalization  (None, 56, 56, 240)  960        ['block2d_dwconv[0][0]']         \n"," )                                                                                                \n","                                                                                                  \n"," block2d_activation (Activation  (None, 56, 56, 240)  0          ['block2d_bn[0][0]']             \n"," )                                                                                                \n","                                                                                                  \n"," block2d_se_squeeze (GlobalAver  (None, 240)         0           ['block2d_activation[0][0]']     \n"," agePooling2D)                                                                                    \n","                                                                                                  \n"," block2d_se_reshape (Reshape)   (None, 1, 1, 240)    0           ['block2d_se_squeeze[0][0]']     \n","                                                                                                  \n"," block2d_se_reduce (Conv2D)     (None, 1, 1, 10)     2410        ['block2d_se_reshape[0][0]']     \n","                                                                                                  \n"," block2d_se_expand (Conv2D)     (None, 1, 1, 240)    2640        ['block2d_se_reduce[0][0]']      \n","                                                                                                  \n"," block2d_se_excite (Multiply)   (None, 56, 56, 240)  0           ['block2d_activation[0][0]',     \n","                                                                  'block2d_se_expand[0][0]']      \n","                                                                                                  \n"," block2d_project_conv (Conv2D)  (None, 56, 56, 40)   9600        ['block2d_se_excite[0][0]']      \n","                                                                                                  \n"," block2d_project_bn (BatchNorma  (None, 56, 56, 40)  160         ['block2d_project_conv[0][0]']   \n"," lization)                                                                                        \n","                                                                                                  \n"," block2d_drop (Dropout)         (None, 56, 56, 40)   0           ['block2d_project_bn[0][0]']     \n","                                                                                                  \n"," block2d_add (Add)              (None, 56, 56, 40)   0           ['block2d_drop[0][0]',           \n","                                                                  'block2c_add[0][0]']            \n","                                                                                                  \n"," block2e_expand_conv (Conv2D)   (None, 56, 56, 240)  9600        ['block2d_add[0][0]']            \n","                                                                                                  \n"," block2e_expand_bn (BatchNormal  (None, 56, 56, 240)  960        ['block2e_expand_conv[0][0]']    \n"," ization)                                                                                         \n","                                                                                                  \n"," block2e_expand_activation (Act  (None, 56, 56, 240)  0          ['block2e_expand_bn[0][0]']      \n"," ivation)                                                                                         \n","                                                                                                  \n"," block2e_dwconv (DepthwiseConv2  (None, 56, 56, 240)  2160       ['block2e_expand_activation[0][0]\n"," D)                                                              ']                               \n","                                                                                                  \n"," block2e_bn (BatchNormalization  (None, 56, 56, 240)  960        ['block2e_dwconv[0][0]']         \n"," )                                                                                                \n","                                                                                                  \n"," block2e_activation (Activation  (None, 56, 56, 240)  0          ['block2e_bn[0][0]']             \n"," )                                                                                                \n","                                                                                                  \n"," block2e_se_squeeze (GlobalAver  (None, 240)         0           ['block2e_activation[0][0]']     \n"," agePooling2D)                                                                                    \n","                                                                                                  \n"," block2e_se_reshape (Reshape)   (None, 1, 1, 240)    0           ['block2e_se_squeeze[0][0]']     \n","                                                                                                  \n"," block2e_se_reduce (Conv2D)     (None, 1, 1, 10)     2410        ['block2e_se_reshape[0][0]']     \n","                                                                                                  \n"," block2e_se_expand (Conv2D)     (None, 1, 1, 240)    2640        ['block2e_se_reduce[0][0]']      \n","                                                                                                  \n"," block2e_se_excite (Multiply)   (None, 56, 56, 240)  0           ['block2e_activation[0][0]',     \n","                                                                  'block2e_se_expand[0][0]']      \n","                                                                                                  \n"," block2e_project_conv (Conv2D)  (None, 56, 56, 40)   9600        ['block2e_se_excite[0][0]']      \n","                                                                                                  \n"," block2e_project_bn (BatchNorma  (None, 56, 56, 40)  160         ['block2e_project_conv[0][0]']   \n"," lization)                                                                                        \n","                                                                                                  \n"," block2e_drop (Dropout)         (None, 56, 56, 40)   0           ['block2e_project_bn[0][0]']     \n","                                                                                                  \n"," block2e_add (Add)              (None, 56, 56, 40)   0           ['block2e_drop[0][0]',           \n","                                                                  'block2d_add[0][0]']            \n","                                                                                                  \n"," block3a_expand_conv (Conv2D)   (None, 56, 56, 240)  9600        ['block2e_add[0][0]']            \n","                                                                                                  \n"," block3a_expand_bn (BatchNormal  (None, 56, 56, 240)  960        ['block3a_expand_conv[0][0]']    \n"," ization)                                                                                         \n","                                                                                                  \n"," block3a_expand_activation (Act  (None, 56, 56, 240)  0          ['block3a_expand_bn[0][0]']      \n"," ivation)                                                                                         \n","                                                                                                  \n"," block3a_dwconv_pad (ZeroPaddin  (None, 59, 59, 240)  0          ['block3a_expand_activation[0][0]\n"," g2D)                                                            ']                               \n","                                                                                                  \n"," block3a_dwconv (DepthwiseConv2  (None, 28, 28, 240)  6000       ['block3a_dwconv_pad[0][0]']     \n"," D)                                                                                               \n","                                                                                                  \n"," block3a_bn (BatchNormalization  (None, 28, 28, 240)  960        ['block3a_dwconv[0][0]']         \n"," )                                                                                                \n","                                                                                                  \n"," block3a_activation (Activation  (None, 28, 28, 240)  0          ['block3a_bn[0][0]']             \n"," )                                                                                                \n","                                                                                                  \n"," block3a_se_squeeze (GlobalAver  (None, 240)         0           ['block3a_activation[0][0]']     \n"," agePooling2D)                                                                                    \n","                                                                                                  \n"," block3a_se_reshape (Reshape)   (None, 1, 1, 240)    0           ['block3a_se_squeeze[0][0]']     \n","                                                                                                  \n"," block3a_se_reduce (Conv2D)     (None, 1, 1, 10)     2410        ['block3a_se_reshape[0][0]']     \n","                                                                                                  \n"," block3a_se_expand (Conv2D)     (None, 1, 1, 240)    2640        ['block3a_se_reduce[0][0]']      \n","                                                                                                  \n"," block3a_se_excite (Multiply)   (None, 28, 28, 240)  0           ['block3a_activation[0][0]',     \n","                                                                  'block3a_se_expand[0][0]']      \n","                                                                                                  \n"," block3a_project_conv (Conv2D)  (None, 28, 28, 64)   15360       ['block3a_se_excite[0][0]']      \n","                                                                                                  \n"," block3a_project_bn (BatchNorma  (None, 28, 28, 64)  256         ['block3a_project_conv[0][0]']   \n"," lization)                                                                                        \n","                                                                                                  \n"," block3b_expand_conv (Conv2D)   (None, 28, 28, 384)  24576       ['block3a_project_bn[0][0]']     \n","                                                                                                  \n"," block3b_expand_bn (BatchNormal  (None, 28, 28, 384)  1536       ['block3b_expand_conv[0][0]']    \n"," ization)                                                                                         \n","                                                                                                  \n"," block3b_expand_activation (Act  (None, 28, 28, 384)  0          ['block3b_expand_bn[0][0]']      \n"," ivation)                                                                                         \n","                                                                                                  \n"," block3b_dwconv (DepthwiseConv2  (None, 28, 28, 384)  9600       ['block3b_expand_activation[0][0]\n"," D)                                                              ']                               \n","                                                                                                  \n"," block3b_bn (BatchNormalization  (None, 28, 28, 384)  1536       ['block3b_dwconv[0][0]']         \n"," )                                                                                                \n","                                                                                                  \n"," block3b_activation (Activation  (None, 28, 28, 384)  0          ['block3b_bn[0][0]']             \n"," )                                                                                                \n","                                                                                                  \n"," block3b_se_squeeze (GlobalAver  (None, 384)         0           ['block3b_activation[0][0]']     \n"," agePooling2D)                                                                                    \n","                                                                                                  \n"," block3b_se_reshape (Reshape)   (None, 1, 1, 384)    0           ['block3b_se_squeeze[0][0]']     \n","                                                                                                  \n"," block3b_se_reduce (Conv2D)     (None, 1, 1, 16)     6160        ['block3b_se_reshape[0][0]']     \n","                                                                                                  \n"," block3b_se_expand (Conv2D)     (None, 1, 1, 384)    6528        ['block3b_se_reduce[0][0]']      \n","                                                                                                  \n"," block3b_se_excite (Multiply)   (None, 28, 28, 384)  0           ['block3b_activation[0][0]',     \n","                                                                  'block3b_se_expand[0][0]']      \n","                                                                                                  \n"," block3b_project_conv (Conv2D)  (None, 28, 28, 64)   24576       ['block3b_se_excite[0][0]']      \n","                                                                                                  \n"," block3b_project_bn (BatchNorma  (None, 28, 28, 64)  256         ['block3b_project_conv[0][0]']   \n"," lization)                                                                                        \n","                                                                                                  \n"," block3b_drop (Dropout)         (None, 28, 28, 64)   0           ['block3b_project_bn[0][0]']     \n","                                                                                                  \n"," block3b_add (Add)              (None, 28, 28, 64)   0           ['block3b_drop[0][0]',           \n","                                                                  'block3a_project_bn[0][0]']     \n","                                                                                                  \n"," block3c_expand_conv (Conv2D)   (None, 28, 28, 384)  24576       ['block3b_add[0][0]']            \n","                                                                                                  \n"," block3c_expand_bn (BatchNormal  (None, 28, 28, 384)  1536       ['block3c_expand_conv[0][0]']    \n"," ization)                                                                                         \n","                                                                                                  \n"," block3c_expand_activation (Act  (None, 28, 28, 384)  0          ['block3c_expand_bn[0][0]']      \n"," ivation)                                                                                         \n","                                                                                                  \n"," block3c_dwconv (DepthwiseConv2  (None, 28, 28, 384)  9600       ['block3c_expand_activation[0][0]\n"," D)                                                              ']                               \n","                                                                                                  \n"," block3c_bn (BatchNormalization  (None, 28, 28, 384)  1536       ['block3c_dwconv[0][0]']         \n"," )                                                                                                \n","                                                                                                  \n"," block3c_activation (Activation  (None, 28, 28, 384)  0          ['block3c_bn[0][0]']             \n"," )                                                                                                \n","                                                                                                  \n"," block3c_se_squeeze (GlobalAver  (None, 384)         0           ['block3c_activation[0][0]']     \n"," agePooling2D)                                                                                    \n","                                                                                                  \n"," block3c_se_reshape (Reshape)   (None, 1, 1, 384)    0           ['block3c_se_squeeze[0][0]']     \n","                                                                                                  \n"," block3c_se_reduce (Conv2D)     (None, 1, 1, 16)     6160        ['block3c_se_reshape[0][0]']     \n","                                                                                                  \n"," block3c_se_expand (Conv2D)     (None, 1, 1, 384)    6528        ['block3c_se_reduce[0][0]']      \n","                                                                                                  \n"," block3c_se_excite (Multiply)   (None, 28, 28, 384)  0           ['block3c_activation[0][0]',     \n","                                                                  'block3c_se_expand[0][0]']      \n","                                                                                                  \n"," block3c_project_conv (Conv2D)  (None, 28, 28, 64)   24576       ['block3c_se_excite[0][0]']      \n","                                                                                                  \n"," block3c_project_bn (BatchNorma  (None, 28, 28, 64)  256         ['block3c_project_conv[0][0]']   \n"," lization)                                                                                        \n","                                                                                                  \n"," block3c_drop (Dropout)         (None, 28, 28, 64)   0           ['block3c_project_bn[0][0]']     \n","                                                                                                  \n"," block3c_add (Add)              (None, 28, 28, 64)   0           ['block3c_drop[0][0]',           \n","                                                                  'block3b_add[0][0]']            \n","                                                                                                  \n"," block3d_expand_conv (Conv2D)   (None, 28, 28, 384)  24576       ['block3c_add[0][0]']            \n","                                                                                                  \n"," block3d_expand_bn (BatchNormal  (None, 28, 28, 384)  1536       ['block3d_expand_conv[0][0]']    \n"," ization)                                                                                         \n","                                                                                                  \n"," block3d_expand_activation (Act  (None, 28, 28, 384)  0          ['block3d_expand_bn[0][0]']      \n"," ivation)                                                                                         \n","                                                                                                  \n"," block3d_dwconv (DepthwiseConv2  (None, 28, 28, 384)  9600       ['block3d_expand_activation[0][0]\n"," D)                                                              ']                               \n","                                                                                                  \n"," block3d_bn (BatchNormalization  (None, 28, 28, 384)  1536       ['block3d_dwconv[0][0]']         \n"," )                                                                                                \n","                                                                                                  \n"," block3d_activation (Activation  (None, 28, 28, 384)  0          ['block3d_bn[0][0]']             \n"," )                                                                                                \n","                                                                                                  \n"," block3d_se_squeeze (GlobalAver  (None, 384)         0           ['block3d_activation[0][0]']     \n"," agePooling2D)                                                                                    \n","                                                                                                  \n"," block3d_se_reshape (Reshape)   (None, 1, 1, 384)    0           ['block3d_se_squeeze[0][0]']     \n","                                                                                                  \n"," block3d_se_reduce (Conv2D)     (None, 1, 1, 16)     6160        ['block3d_se_reshape[0][0]']     \n","                                                                                                  \n"," block3d_se_expand (Conv2D)     (None, 1, 1, 384)    6528        ['block3d_se_reduce[0][0]']      \n","                                                                                                  \n"," block3d_se_excite (Multiply)   (None, 28, 28, 384)  0           ['block3d_activation[0][0]',     \n","                                                                  'block3d_se_expand[0][0]']      \n","                                                                                                  \n"," block3d_project_conv (Conv2D)  (None, 28, 28, 64)   24576       ['block3d_se_excite[0][0]']      \n","                                                                                                  \n"," block3d_project_bn (BatchNorma  (None, 28, 28, 64)  256         ['block3d_project_conv[0][0]']   \n"," lization)                                                                                        \n","                                                                                                  \n"," block3d_drop (Dropout)         (None, 28, 28, 64)   0           ['block3d_project_bn[0][0]']     \n","                                                                                                  \n"," block3d_add (Add)              (None, 28, 28, 64)   0           ['block3d_drop[0][0]',           \n","                                                                  'block3c_add[0][0]']            \n","                                                                                                  \n"," block3e_expand_conv (Conv2D)   (None, 28, 28, 384)  24576       ['block3d_add[0][0]']            \n","                                                                                                  \n"," block3e_expand_bn (BatchNormal  (None, 28, 28, 384)  1536       ['block3e_expand_conv[0][0]']    \n"," ization)                                                                                         \n","                                                                                                  \n"," block3e_expand_activation (Act  (None, 28, 28, 384)  0          ['block3e_expand_bn[0][0]']      \n"," ivation)                                                                                         \n","                                                                                                  \n"," block3e_dwconv (DepthwiseConv2  (None, 28, 28, 384)  9600       ['block3e_expand_activation[0][0]\n"," D)                                                              ']                               \n","                                                                                                  \n"," block3e_bn (BatchNormalization  (None, 28, 28, 384)  1536       ['block3e_dwconv[0][0]']         \n"," )                                                                                                \n","                                                                                                  \n"," block3e_activation (Activation  (None, 28, 28, 384)  0          ['block3e_bn[0][0]']             \n"," )                                                                                                \n","                                                                                                  \n"," block3e_se_squeeze (GlobalAver  (None, 384)         0           ['block3e_activation[0][0]']     \n"," agePooling2D)                                                                                    \n","                                                                                                  \n"," block3e_se_reshape (Reshape)   (None, 1, 1, 384)    0           ['block3e_se_squeeze[0][0]']     \n","                                                                                                  \n"," block3e_se_reduce (Conv2D)     (None, 1, 1, 16)     6160        ['block3e_se_reshape[0][0]']     \n","                                                                                                  \n"," block3e_se_expand (Conv2D)     (None, 1, 1, 384)    6528        ['block3e_se_reduce[0][0]']      \n","                                                                                                  \n"," block3e_se_excite (Multiply)   (None, 28, 28, 384)  0           ['block3e_activation[0][0]',     \n","                                                                  'block3e_se_expand[0][0]']      \n","                                                                                                  \n"," block3e_project_conv (Conv2D)  (None, 28, 28, 64)   24576       ['block3e_se_excite[0][0]']      \n","                                                                                                  \n"," block3e_project_bn (BatchNorma  (None, 28, 28, 64)  256         ['block3e_project_conv[0][0]']   \n"," lization)                                                                                        \n","                                                                                                  \n"," block3e_drop (Dropout)         (None, 28, 28, 64)   0           ['block3e_project_bn[0][0]']     \n","                                                                                                  \n"," block3e_add (Add)              (None, 28, 28, 64)   0           ['block3e_drop[0][0]',           \n","                                                                  'block3d_add[0][0]']            \n","                                                                                                  \n"," block4a_expand_conv (Conv2D)   (None, 28, 28, 384)  24576       ['block3e_add[0][0]']            \n","                                                                                                  \n"," block4a_expand_bn (BatchNormal  (None, 28, 28, 384)  1536       ['block4a_expand_conv[0][0]']    \n"," ization)                                                                                         \n","                                                                                                  \n"," block4a_expand_activation (Act  (None, 28, 28, 384)  0          ['block4a_expand_bn[0][0]']      \n"," ivation)                                                                                         \n","                                                                                                  \n"," block4a_dwconv_pad (ZeroPaddin  (None, 29, 29, 384)  0          ['block4a_expand_activation[0][0]\n"," g2D)                                                            ']                               \n","                                                                                                  \n"," block4a_dwconv (DepthwiseConv2  (None, 14, 14, 384)  3456       ['block4a_dwconv_pad[0][0]']     \n"," D)                                                                                               \n","                                                                                                  \n"," block4a_bn (BatchNormalization  (None, 14, 14, 384)  1536       ['block4a_dwconv[0][0]']         \n"," )                                                                                                \n","                                                                                                  \n"," block4a_activation (Activation  (None, 14, 14, 384)  0          ['block4a_bn[0][0]']             \n"," )                                                                                                \n","                                                                                                  \n"," block4a_se_squeeze (GlobalAver  (None, 384)         0           ['block4a_activation[0][0]']     \n"," agePooling2D)                                                                                    \n","                                                                                                  \n"," block4a_se_reshape (Reshape)   (None, 1, 1, 384)    0           ['block4a_se_squeeze[0][0]']     \n","                                                                                                  \n"," block4a_se_reduce (Conv2D)     (None, 1, 1, 16)     6160        ['block4a_se_reshape[0][0]']     \n","                                                                                                  \n"," block4a_se_expand (Conv2D)     (None, 1, 1, 384)    6528        ['block4a_se_reduce[0][0]']      \n","                                                                                                  \n"," block4a_se_excite (Multiply)   (None, 14, 14, 384)  0           ['block4a_activation[0][0]',     \n","                                                                  'block4a_se_expand[0][0]']      \n","                                                                                                  \n"," block4a_project_conv (Conv2D)  (None, 14, 14, 128)  49152       ['block4a_se_excite[0][0]']      \n","                                                                                                  \n"," block4a_project_bn (BatchNorma  (None, 14, 14, 128)  512        ['block4a_project_conv[0][0]']   \n"," lization)                                                                                        \n","                                                                                                  \n"," block4b_expand_conv (Conv2D)   (None, 14, 14, 768)  98304       ['block4a_project_bn[0][0]']     \n","                                                                                                  \n"," block4b_expand_bn (BatchNormal  (None, 14, 14, 768)  3072       ['block4b_expand_conv[0][0]']    \n"," ization)                                                                                         \n","                                                                                                  \n"," block4b_expand_activation (Act  (None, 14, 14, 768)  0          ['block4b_expand_bn[0][0]']      \n"," ivation)                                                                                         \n","                                                                                                  \n"," block4b_dwconv (DepthwiseConv2  (None, 14, 14, 768)  6912       ['block4b_expand_activation[0][0]\n"," D)                                                              ']                               \n","                                                                                                  \n"," block4b_bn (BatchNormalization  (None, 14, 14, 768)  3072       ['block4b_dwconv[0][0]']         \n"," )                                                                                                \n","                                                                                                  \n"," block4b_activation (Activation  (None, 14, 14, 768)  0          ['block4b_bn[0][0]']             \n"," )                                                                                                \n","                                                                                                  \n"," block4b_se_squeeze (GlobalAver  (None, 768)         0           ['block4b_activation[0][0]']     \n"," agePooling2D)                                                                                    \n","                                                                                                  \n"," block4b_se_reshape (Reshape)   (None, 1, 1, 768)    0           ['block4b_se_squeeze[0][0]']     \n","                                                                                                  \n"," block4b_se_reduce (Conv2D)     (None, 1, 1, 32)     24608       ['block4b_se_reshape[0][0]']     \n","                                                                                                  \n"," block4b_se_expand (Conv2D)     (None, 1, 1, 768)    25344       ['block4b_se_reduce[0][0]']      \n","                                                                                                  \n"," block4b_se_excite (Multiply)   (None, 14, 14, 768)  0           ['block4b_activation[0][0]',     \n","                                                                  'block4b_se_expand[0][0]']      \n","                                                                                                  \n"," block4b_project_conv (Conv2D)  (None, 14, 14, 128)  98304       ['block4b_se_excite[0][0]']      \n","                                                                                                  \n"," block4b_project_bn (BatchNorma  (None, 14, 14, 128)  512        ['block4b_project_conv[0][0]']   \n"," lization)                                                                                        \n","                                                                                                  \n"," block4b_drop (Dropout)         (None, 14, 14, 128)  0           ['block4b_project_bn[0][0]']     \n","                                                                                                  \n"," block4b_add (Add)              (None, 14, 14, 128)  0           ['block4b_drop[0][0]',           \n","                                                                  'block4a_project_bn[0][0]']     \n","                                                                                                  \n"," block4c_expand_conv (Conv2D)   (None, 14, 14, 768)  98304       ['block4b_add[0][0]']            \n","                                                                                                  \n"," block4c_expand_bn (BatchNormal  (None, 14, 14, 768)  3072       ['block4c_expand_conv[0][0]']    \n"," ization)                                                                                         \n","                                                                                                  \n"," block4c_expand_activation (Act  (None, 14, 14, 768)  0          ['block4c_expand_bn[0][0]']      \n"," ivation)                                                                                         \n","                                                                                                  \n"," block4c_dwconv (DepthwiseConv2  (None, 14, 14, 768)  6912       ['block4c_expand_activation[0][0]\n"," D)                                                              ']                               \n","                                                                                                  \n"," block4c_bn (BatchNormalization  (None, 14, 14, 768)  3072       ['block4c_dwconv[0][0]']         \n"," )                                                                                                \n","                                                                                                  \n"," block4c_activation (Activation  (None, 14, 14, 768)  0          ['block4c_bn[0][0]']             \n"," )                                                                                                \n","                                                                                                  \n"," block4c_se_squeeze (GlobalAver  (None, 768)         0           ['block4c_activation[0][0]']     \n"," agePooling2D)                                                                                    \n","                                                                                                  \n"," block4c_se_reshape (Reshape)   (None, 1, 1, 768)    0           ['block4c_se_squeeze[0][0]']     \n","                                                                                                  \n"," block4c_se_reduce (Conv2D)     (None, 1, 1, 32)     24608       ['block4c_se_reshape[0][0]']     \n","                                                                                                  \n"," block4c_se_expand (Conv2D)     (None, 1, 1, 768)    25344       ['block4c_se_reduce[0][0]']      \n","                                                                                                  \n"," block4c_se_excite (Multiply)   (None, 14, 14, 768)  0           ['block4c_activation[0][0]',     \n","                                                                  'block4c_se_expand[0][0]']      \n","                                                                                                  \n"," block4c_project_conv (Conv2D)  (None, 14, 14, 128)  98304       ['block4c_se_excite[0][0]']      \n","                                                                                                  \n"," block4c_project_bn (BatchNorma  (None, 14, 14, 128)  512        ['block4c_project_conv[0][0]']   \n"," lization)                                                                                        \n","                                                                                                  \n"," block4c_drop (Dropout)         (None, 14, 14, 128)  0           ['block4c_project_bn[0][0]']     \n","                                                                                                  \n"," block4c_add (Add)              (None, 14, 14, 128)  0           ['block4c_drop[0][0]',           \n","                                                                  'block4b_add[0][0]']            \n","                                                                                                  \n"," block4d_expand_conv (Conv2D)   (None, 14, 14, 768)  98304       ['block4c_add[0][0]']            \n","                                                                                                  \n"," block4d_expand_bn (BatchNormal  (None, 14, 14, 768)  3072       ['block4d_expand_conv[0][0]']    \n"," ization)                                                                                         \n","                                                                                                  \n"," block4d_expand_activation (Act  (None, 14, 14, 768)  0          ['block4d_expand_bn[0][0]']      \n"," ivation)                                                                                         \n","                                                                                                  \n"," block4d_dwconv (DepthwiseConv2  (None, 14, 14, 768)  6912       ['block4d_expand_activation[0][0]\n"," D)                                                              ']                               \n","                                                                                                  \n"," block4d_bn (BatchNormalization  (None, 14, 14, 768)  3072       ['block4d_dwconv[0][0]']         \n"," )                                                                                                \n","                                                                                                  \n"," block4d_activation (Activation  (None, 14, 14, 768)  0          ['block4d_bn[0][0]']             \n"," )                                                                                                \n","                                                                                                  \n"," block4d_se_squeeze (GlobalAver  (None, 768)         0           ['block4d_activation[0][0]']     \n"," agePooling2D)                                                                                    \n","                                                                                                  \n"," block4d_se_reshape (Reshape)   (None, 1, 1, 768)    0           ['block4d_se_squeeze[0][0]']     \n","                                                                                                  \n"," block4d_se_reduce (Conv2D)     (None, 1, 1, 32)     24608       ['block4d_se_reshape[0][0]']     \n","                                                                                                  \n"," block4d_se_expand (Conv2D)     (None, 1, 1, 768)    25344       ['block4d_se_reduce[0][0]']      \n","                                                                                                  \n"," block4d_se_excite (Multiply)   (None, 14, 14, 768)  0           ['block4d_activation[0][0]',     \n","                                                                  'block4d_se_expand[0][0]']      \n","                                                                                                  \n"," block4d_project_conv (Conv2D)  (None, 14, 14, 128)  98304       ['block4d_se_excite[0][0]']      \n","                                                                                                  \n"," block4d_project_bn (BatchNorma  (None, 14, 14, 128)  512        ['block4d_project_conv[0][0]']   \n"," lization)                                                                                        \n","                                                                                                  \n"," block4d_drop (Dropout)         (None, 14, 14, 128)  0           ['block4d_project_bn[0][0]']     \n","                                                                                                  \n"," block4d_add (Add)              (None, 14, 14, 128)  0           ['block4d_drop[0][0]',           \n","                                                                  'block4c_add[0][0]']            \n","                                                                                                  \n"," block4e_expand_conv (Conv2D)   (None, 14, 14, 768)  98304       ['block4d_add[0][0]']            \n","                                                                                                  \n"," block4e_expand_bn (BatchNormal  (None, 14, 14, 768)  3072       ['block4e_expand_conv[0][0]']    \n"," ization)                                                                                         \n","                                                                                                  \n"," block4e_expand_activation (Act  (None, 14, 14, 768)  0          ['block4e_expand_bn[0][0]']      \n"," ivation)                                                                                         \n","                                                                                                  \n"," block4e_dwconv (DepthwiseConv2  (None, 14, 14, 768)  6912       ['block4e_expand_activation[0][0]\n"," D)                                                              ']                               \n","                                                                                                  \n"," block4e_bn (BatchNormalization  (None, 14, 14, 768)  3072       ['block4e_dwconv[0][0]']         \n"," )                                                                                                \n","                                                                                                  \n"," block4e_activation (Activation  (None, 14, 14, 768)  0          ['block4e_bn[0][0]']             \n"," )                                                                                                \n","                                                                                                  \n"," block4e_se_squeeze (GlobalAver  (None, 768)         0           ['block4e_activation[0][0]']     \n"," agePooling2D)                                                                                    \n","                                                                                                  \n"," block4e_se_reshape (Reshape)   (None, 1, 1, 768)    0           ['block4e_se_squeeze[0][0]']     \n","                                                                                                  \n"," block4e_se_reduce (Conv2D)     (None, 1, 1, 32)     24608       ['block4e_se_reshape[0][0]']     \n","                                                                                                  \n"," block4e_se_expand (Conv2D)     (None, 1, 1, 768)    25344       ['block4e_se_reduce[0][0]']      \n","                                                                                                  \n"," block4e_se_excite (Multiply)   (None, 14, 14, 768)  0           ['block4e_activation[0][0]',     \n","                                                                  'block4e_se_expand[0][0]']      \n","                                                                                                  \n"," block4e_project_conv (Conv2D)  (None, 14, 14, 128)  98304       ['block4e_se_excite[0][0]']      \n","                                                                                                  \n"," block4e_project_bn (BatchNorma  (None, 14, 14, 128)  512        ['block4e_project_conv[0][0]']   \n"," lization)                                                                                        \n","                                                                                                  \n"," block4e_drop (Dropout)         (None, 14, 14, 128)  0           ['block4e_project_bn[0][0]']     \n","                                                                                                  \n"," block4e_add (Add)              (None, 14, 14, 128)  0           ['block4e_drop[0][0]',           \n","                                                                  'block4d_add[0][0]']            \n","                                                                                                  \n"," block4f_expand_conv (Conv2D)   (None, 14, 14, 768)  98304       ['block4e_add[0][0]']            \n","                                                                                                  \n"," block4f_expand_bn (BatchNormal  (None, 14, 14, 768)  3072       ['block4f_expand_conv[0][0]']    \n"," ization)                                                                                         \n","                                                                                                  \n"," block4f_expand_activation (Act  (None, 14, 14, 768)  0          ['block4f_expand_bn[0][0]']      \n"," ivation)                                                                                         \n","                                                                                                  \n"," block4f_dwconv (DepthwiseConv2  (None, 14, 14, 768)  6912       ['block4f_expand_activation[0][0]\n"," D)                                                              ']                               \n","                                                                                                  \n"," block4f_bn (BatchNormalization  (None, 14, 14, 768)  3072       ['block4f_dwconv[0][0]']         \n"," )                                                                                                \n","                                                                                                  \n"," block4f_activation (Activation  (None, 14, 14, 768)  0          ['block4f_bn[0][0]']             \n"," )                                                                                                \n","                                                                                                  \n"," block4f_se_squeeze (GlobalAver  (None, 768)         0           ['block4f_activation[0][0]']     \n"," agePooling2D)                                                                                    \n","                                                                                                  \n"," block4f_se_reshape (Reshape)   (None, 1, 1, 768)    0           ['block4f_se_squeeze[0][0]']     \n","                                                                                                  \n"," block4f_se_reduce (Conv2D)     (None, 1, 1, 32)     24608       ['block4f_se_reshape[0][0]']     \n","                                                                                                  \n"," block4f_se_expand (Conv2D)     (None, 1, 1, 768)    25344       ['block4f_se_reduce[0][0]']      \n","                                                                                                  \n"," block4f_se_excite (Multiply)   (None, 14, 14, 768)  0           ['block4f_activation[0][0]',     \n","                                                                  'block4f_se_expand[0][0]']      \n","                                                                                                  \n"," block4f_project_conv (Conv2D)  (None, 14, 14, 128)  98304       ['block4f_se_excite[0][0]']      \n","                                                                                                  \n"," block4f_project_bn (BatchNorma  (None, 14, 14, 128)  512        ['block4f_project_conv[0][0]']   \n"," lization)                                                                                        \n","                                                                                                  \n"," block4f_drop (Dropout)         (None, 14, 14, 128)  0           ['block4f_project_bn[0][0]']     \n","                                                                                                  \n"," block4f_add (Add)              (None, 14, 14, 128)  0           ['block4f_drop[0][0]',           \n","                                                                  'block4e_add[0][0]']            \n","                                                                                                  \n"," block4g_expand_conv (Conv2D)   (None, 14, 14, 768)  98304       ['block4f_add[0][0]']            \n","                                                                                                  \n"," block4g_expand_bn (BatchNormal  (None, 14, 14, 768)  3072       ['block4g_expand_conv[0][0]']    \n"," ization)                                                                                         \n","                                                                                                  \n"," block4g_expand_activation (Act  (None, 14, 14, 768)  0          ['block4g_expand_bn[0][0]']      \n"," ivation)                                                                                         \n","                                                                                                  \n"," block4g_dwconv (DepthwiseConv2  (None, 14, 14, 768)  6912       ['block4g_expand_activation[0][0]\n"," D)                                                              ']                               \n","                                                                                                  \n"," block4g_bn (BatchNormalization  (None, 14, 14, 768)  3072       ['block4g_dwconv[0][0]']         \n"," )                                                                                                \n","                                                                                                  \n"," block4g_activation (Activation  (None, 14, 14, 768)  0          ['block4g_bn[0][0]']             \n"," )                                                                                                \n","                                                                                                  \n"," block4g_se_squeeze (GlobalAver  (None, 768)         0           ['block4g_activation[0][0]']     \n"," agePooling2D)                                                                                    \n","                                                                                                  \n"," block4g_se_reshape (Reshape)   (None, 1, 1, 768)    0           ['block4g_se_squeeze[0][0]']     \n","                                                                                                  \n"," block4g_se_reduce (Conv2D)     (None, 1, 1, 32)     24608       ['block4g_se_reshape[0][0]']     \n","                                                                                                  \n"," block4g_se_expand (Conv2D)     (None, 1, 1, 768)    25344       ['block4g_se_reduce[0][0]']      \n","                                                                                                  \n"," block4g_se_excite (Multiply)   (None, 14, 14, 768)  0           ['block4g_activation[0][0]',     \n","                                                                  'block4g_se_expand[0][0]']      \n","                                                                                                  \n"," block4g_project_conv (Conv2D)  (None, 14, 14, 128)  98304       ['block4g_se_excite[0][0]']      \n","                                                                                                  \n"," block4g_project_bn (BatchNorma  (None, 14, 14, 128)  512        ['block4g_project_conv[0][0]']   \n"," lization)                                                                                        \n","                                                                                                  \n"," block4g_drop (Dropout)         (None, 14, 14, 128)  0           ['block4g_project_bn[0][0]']     \n","                                                                                                  \n"," block4g_add (Add)              (None, 14, 14, 128)  0           ['block4g_drop[0][0]',           \n","                                                                  'block4f_add[0][0]']            \n","                                                                                                  \n"," block5a_expand_conv (Conv2D)   (None, 14, 14, 768)  98304       ['block4g_add[0][0]']            \n","                                                                                                  \n"," block5a_expand_bn (BatchNormal  (None, 14, 14, 768)  3072       ['block5a_expand_conv[0][0]']    \n"," ization)                                                                                         \n","                                                                                                  \n"," block5a_expand_activation (Act  (None, 14, 14, 768)  0          ['block5a_expand_bn[0][0]']      \n"," ivation)                                                                                         \n","                                                                                                  \n"," block5a_dwconv (DepthwiseConv2  (None, 14, 14, 768)  19200      ['block5a_expand_activation[0][0]\n"," D)                                                              ']                               \n","                                                                                                  \n"," block5a_bn (BatchNormalization  (None, 14, 14, 768)  3072       ['block5a_dwconv[0][0]']         \n"," )                                                                                                \n","                                                                                                  \n"," block5a_activation (Activation  (None, 14, 14, 768)  0          ['block5a_bn[0][0]']             \n"," )                                                                                                \n","                                                                                                  \n"," block5a_se_squeeze (GlobalAver  (None, 768)         0           ['block5a_activation[0][0]']     \n"," agePooling2D)                                                                                    \n","                                                                                                  \n"," block5a_se_reshape (Reshape)   (None, 1, 1, 768)    0           ['block5a_se_squeeze[0][0]']     \n","                                                                                                  \n"," block5a_se_reduce (Conv2D)     (None, 1, 1, 32)     24608       ['block5a_se_reshape[0][0]']     \n","                                                                                                  \n"," block5a_se_expand (Conv2D)     (None, 1, 1, 768)    25344       ['block5a_se_reduce[0][0]']      \n","                                                                                                  \n"," block5a_se_excite (Multiply)   (None, 14, 14, 768)  0           ['block5a_activation[0][0]',     \n","                                                                  'block5a_se_expand[0][0]']      \n","                                                                                                  \n"," block5a_project_conv (Conv2D)  (None, 14, 14, 176)  135168      ['block5a_se_excite[0][0]']      \n","                                                                                                  \n"," block5a_project_bn (BatchNorma  (None, 14, 14, 176)  704        ['block5a_project_conv[0][0]']   \n"," lization)                                                                                        \n","                                                                                                  \n"," block5b_expand_conv (Conv2D)   (None, 14, 14, 1056  185856      ['block5a_project_bn[0][0]']     \n","                                )            
…
6  4224       ['block5b_dwconv[0][0]']         \n"," )                              )                                                                 \n","                                                                                                  \n"," block5b_activation (Activation  (None, 14, 14, 1056  0          ['block5b_bn[0][0]']             \n"," )                              )                                                                 \n","                                                                                                  \n"," block5b_se_squeeze (GlobalAver  (None, 1056)        0           ['block5b_activation[0][0]']     \n"," agePooling2D)                                                                                    \n","                                                                                                  \n"," block5b_se_reshape (Reshape)   (None, 1, 1, 1056)   0           ['block5b_se_squeeze[0][0]']     \n","                                                                                                  \n"," block5b_se_reduce (Conv2D)     (None, 1, 1, 44)     46508       ['block5b_se_reshape[0][0]']     \n","                                                                                                  \n"," block5b_se_expand (Conv2D)     (None, 1, 1, 1056)   47520       ['block5b_se_reduce[0][0]']      \n","                                                                                                  \n"," block5b_se_excite (Multiply)   (None, 14, 14, 1056  0           ['block5b_activation[0][0]',     \n","                                )                                 'block5b_se_expand[0][0]']      \n","                                                                                                  \n"," block5b_project_conv (Conv2D)  (None, 14, 14, 176)  185856      ['block5b_se_excite[0][0]']      \n","                                                                                                  \n"," block5b_project_bn (BatchNorma  (None, 14, 14, 176)  704        ['block5b_project_conv[0][0]']   \n"," lization)                                                                                        \n","                                                                                                  \n"," block5b_drop (Dropout)         (None, 14, 14, 176)  0           ['block5b_project_bn[0][0]']     \n","                                                                                                  \n"," block5b_add (Add)              (None, 14, 14, 176)  0           ['block5b_drop[0][0]',           \n","                                                                  'block5a_project_bn[0][0]']     \n","                                                                                                  \n"," block5c_expand_conv (Conv2D)   (None, 14, 14, 1056  185856      ['block5b_add[0][0]']            \n","                                )         
…
6  0          ['block6a_expand_bn[0][0]']      \n"," ivation)                       )                                                                 \n","                                                                                                  \n"," block6a_dwconv_pad (ZeroPaddin  (None, 17, 17, 1056  0          ['block6a_expand_activation[0][0]\n"," g2D)                           )                                ']                               \n","                                                                                                  \n"," block6a_dwconv (DepthwiseConv2  (None, 7, 7, 1056)  26400       ['block6a_dwconv_pad[0][0]']     \n"," D)                                                                                               \n","                                                                                                  \n"," block6a_bn (BatchNormalization  (None, 7, 7, 1056)  4224        ['block6a_dwconv[0][0]']         \n"," )                                                                                                \n","                                                                                                  \n"," block6a_activation (Activation  (None, 7, 7, 1056)  0           ['block6a_bn[0][0]']             \n"," )                                                                                                \n","                                                                                                  \n"," block6a_se_squeeze (GlobalAver  (None, 1056)        0           ['block6a_activation[0][0]']     \n"," agePooling2D)                                                                                    \n","                                                                                                  \n"," block6a_se_reshape (Reshape)   (None, 1, 1, 1056)   0           ['block6a_se_squeeze[0][0]']     \n","                                                                                                  \n"," block6a_se_reduce (Conv2D)     (None, 1, 1, 44)     46508       ['block6a_se_reshape[0][0]']     \n","                                                                                                  \n"," block6a_se_expand (Conv2D)     (None, 1, 1, 1056)   47520       ['block6a_se_reduce[0][0]']      \n","                                                                                                  \n"," block6a_se_excite (Multiply)   (None, 7, 7, 1056)   0           ['block6a_activation[0][0]',     \n","                                                                  'block6a_se_expand[0][0]']      \n","                                                                                                  \n"," block6a_project_conv (Conv2D)  (None, 7, 7, 304)    321024      ['block6a_se_excite[0][0]']      \n","                                                                                                  \n"," block6a_project_bn (BatchNorma  (None, 7, 7, 304)   1216        ['block6a_project_conv[0][0]']   \n"," lization)                                                                                        \n","                                                                                                  \n"," block6b_expand_conv (Conv2D)   (None, 7, 7, 1824)   554496      ['block6a_project_bn[0][0]']     \n","                                                                                                  \n"," block6b_expand_bn (BatchNormal  (None, 7, 7, 1824)  7296        ['block6b_expand_conv[0][0]']    \n"," ization)                                                                                         \n","                                                                                                  \n"," block6b_expand_activation (Act  (None, 7, 7, 1824)  0           ['block6b_expand_bn[0][0]']      \n"," ivation)                                                                                         \n","                                                                                                  \n"," block6b_dwconv (DepthwiseConv2  (None, 7, 7, 1824)  45600       ['block6b_expand_activation[0][0]\n"," D)                                                              ']                               \n","                                                                                                  \n"," block6b_bn (BatchNormalization  (None, 7, 7, 1824)  7296        ['block6b_dwconv[0][0]']         \n"," )                                                                                                \n","                                                                                                  \n"," block6b_activation (Activation  (None, 7, 7, 1824)  0           ['block6b_bn[0][0]']             \n"," )                                                                                                \n","                                                                                                  \n"," block6b_se_squeeze (GlobalAver  (None, 1824)        0           ['block6b_activation[0][0]']     \n"," agePooling2D)                                                                                    \n","                                                                                                  \n"," block6b_se_reshape (Reshape)   (None, 1, 1, 1824)   0           ['block6b_se_squeeze[0][0]']     \n","                                                                                                  \n"," block6b_se_reduce (Conv2D)     (None, 1, 1, 76)     138700      ['block6b_se_reshape[0][0]']     \n","                                                                                                  \n"," block6b_se_expand (Conv2D)     (None, 1, 1, 1824)   140448      ['block6b_se_reduce[0][0]']      \n","                                                                                                  \n"," block6b_se_excite (Multiply)   (None, 7, 7, 1824)   0           ['block6b_activation[0][0]',     \n","                                                                  'block6b_se_expand[0][0]']      \n","                                                                                                  \n"," block6b_project_conv (Conv2D)  (None, 7, 7, 304)    554496      ['block6b_se_excite[0][0]']      \n","                                                                                                  \n"," block6b_project_bn (BatchNorma  (None, 7, 7, 304)   1216        ['block6b_project_conv[0][0]']   \n"," lization)                                                                                        \n","                                                                                                  \n"," block6b_drop (Dropout)         (None, 7, 7, 304)    0           ['block6b_project_bn[0][0]']     \n","                                                                                                  \n"," block6b_add (Add)              (None, 7, 7, 304)    0           ['block6b_drop[0][0]',           \n","                                                                  'block6a_project_bn[0][0]']     \n","                                                                                                  \n"," block6c_expand_conv (Conv2D)   (None, 7, 7, 1824)   554496      ['block6b_add[0][0]']            \n","                                                                                                  \n"," block6c_expand_bn (BatchNormal  (None, 7, 7, 1824)  7296        ['block6c_expand_conv[0][0]']    \n"," ization)                                                                                         \n","                                                                                                  \n"," block6c_expand_activation (Act  (None, 7, 7, 1824)  0           ['block6c_expand_bn[0][0]']      \n"," ivation)                                                                                         \n","                                                                                                  \n"," block6c_dwconv (DepthwiseConv2  (None, 7, 7, 1824)  45600       ['block6c_expand_activation[0][0]\n"," D)                                                              ']                               \n","                                                                                                  \n"," block6c_bn (BatchNormalization  (None, 7, 7, 1824)  7296        ['block6c_dwconv[0][0]']         \n"," )                                                                                                \n","                                                                                                  \n"," block6c_activation (Activation  (None, 7, 7, 1824)  0           ['block6c_bn[0][0]']             \n"," )                                                                                                \n","                                                                                                  \n"," block6c_se_squeeze (GlobalAver  (None, 1824)        0           ['block6c_activation[0][0]']     \n"," agePooling2D)                                                                                    \n","                                                                                                  \n"," block6c_se_reshape (Reshape)   (None, 1, 1, 1824)   0           ['block6c_se_squeeze[0][0]']     \n","                                                                                                  \n"," block6c_se_reduce (Conv2D)     (None, 1, 1, 76)     138700      ['block6c_se_reshape[0][0]']     \n","                                                                                                  \n"," block6c_se_expand (Conv2D)     (None, 1, 1, 1824)   140448      ['block6c_se_reduce[0][0]']      \n","                                                                                                  \n"," block6c_se_excite (Multiply)   (None, 7, 7, 1824)   0           ['block6c_activation[0][0]',     \n","                                                                  'block6c_se_expand[0][0]']      \n","                                                                                                  \n"," block6c_project_conv (Conv2D)  (None, 7, 7, 304)    554496      ['block6c_se_excite[0][0]']      \n","                                                                                                  \n"," block6c_project_bn (BatchNorma  (None, 7, 7, 304)   1216        ['block6c_project_conv[0][0]']   \n"," lization)                                                                                        \n","                                                                                                  \n"," block6c_drop (Dropout)         (None, 7, 7, 304)    0           ['block6c_project_bn[0][0]']     \n","                                                                                                  \n"," block6c_add (Add)              (None, 7, 7, 304)    0           ['block6c_drop[0][0]',           \n","                                                                  'block6b_add[0][0]']            \n","                                                                                                  \n"," block6d_expand_conv (Conv2D)   (None, 7, 7, 1824)   554496      ['block6c_add[0][0]']            \n","                                                                                                  \n"," block6d_expand_bn (BatchNormal  (None, 7, 7, 1824)  7296        ['block6d_expand_conv[0][0]']    \n"," ization)                                                                                         \n","                                                                                                  \n"," block6d_expand_activation (Act  (None, 7, 7, 1824)  0           ['block6d_expand_bn[0][0]']      \n"," ivation)                                                                                         \n","                                                                                                  \n"," block6d_dwconv (DepthwiseConv2  (None, 7, 7, 1824)  45600       ['block6d_expand_activation[0][0]\n"," D)                                                              ']                               \n","                                                                                                  \n"," block6d_bn (BatchNormalization  (None, 7, 7, 1824)  7296        ['block6d_dwconv[0][0]']         \n"," )                                                                                                \n","                                                                                                  \n"," block6d_activation (Activation  (None, 7, 7, 1824)  0           ['block6d_bn[0][0]']             \n"," )                                                                                                \n","                                                                                                  \n"," block6d_se_squeeze (GlobalAver  (None, 1824)        0           ['block6d_activation[0][0]']     \n"," agePooling2D)                                                                                    \n","                                                                                                  \n"," block6d_se_reshape (Reshape)   (None, 1, 1, 1824)   0           ['block6d_se_squeeze[0][0]']     \n","                                                                                                  \n"," block6d_se_reduce (Conv2D)     (None, 1, 1, 76)     138700      ['block6d_se_reshape[0][0]']     \n","                                                                                                  \n"," block6d_se_expand (Conv2D)     (None, 1, 1, 1824)   140448      ['block6d_se_reduce[0][0]']      \n","                                                                                                  \n"," block6d_se_excite (Multiply)   (None, 7, 7, 1824)   0           ['block6d_activation[0][0]',     \n","                                                                  'block6d_se_expand[0][0]']      \n","                                                                                                  \n"," block6d_project_conv (Conv2D)  (None, 7, 7, 304)    554496      ['block6d_se_excite[0][0]']      \n","                                                                                                  \n"," block6d_project_bn (BatchNorma  (None, 7, 7, 304)   1216        ['block6d_project_conv[0][0]']   \n"," lization)                                                                                        \n","                                                                                                  \n"," block6d_drop (Dropout)         (None, 7, 7, 304)    0           ['block6d_project_bn[0][0]']     \n","                                                                                                  \n"," block6d_add (Add)              (None, 7, 7, 304)    0           ['block6d_drop[0][0]',           \n","                                                                  'block6c_add[0][0]']            \n","                                                                                                  \n"," block6e_expand_conv (Conv2D)   (None, 7, 7, 1824)   554496      ['block6d_add[0][0]']            \n","                                                                                                  \n"," block6e_expand_bn (BatchNormal  (None, 7, 7, 1824)  7296        ['block6e_expand_conv[0][0]']    \n"," ization)                                                                                         \n","                                                                                                  \n"," block6e_expand_activation (Act  (None, 7, 7, 1824)  0           ['block6e_expand_bn[0][0]']      \n"," ivation)                                                                                         \n","                                                                                                  \n"," block6e_dwconv (DepthwiseConv2  (None, 7, 7, 1824)  45600       ['block6e_expand_activation[0][0]\n"," D)                                                              ']                               \n","                                                                                                  \n"," block6e_bn (BatchNormalization  (None, 7, 7, 1824)  7296        ['block6e_dwconv[0][0]']         \n"," )                                                                                                \n","                                                                                                  \n"," block6e_activation (Activation  (None, 7, 7, 1824)  0           ['block6e_bn[0][0]']             \n"," )                                                                                                \n","                                                                                                  \n"," block6e_se_squeeze (GlobalAver  (None, 1824)        0           ['block6e_activation[0][0]']     \n"," agePooling2D)                                                                                    \n","                                                                                                  \n"," block6e_se_reshape (Reshape)   (None, 1, 1, 1824)   0           ['block6e_se_squeeze[0][0]']     \n","                                                                                                  \n"," block6e_se_reduce (Conv2D)     (None, 1, 1, 76)     138700      ['block6e_se_reshape[0][0]']     \n","                                                                                                  \n"," block6e_se_expand (Conv2D)     (None, 1, 1, 1824)   140448      ['block6e_se_reduce[0][0]']      \n","                                                                                                  \n"," block6e_se_excite (Multiply)   (None, 7, 7, 1824)   0           ['block6e_activation[0][0]',     \n","                                                                  'block6e_se_expand[0][0]']      \n","                                                                                                  \n"," block6e_project_conv (Conv2D)  (None, 7, 7, 304)    554496      ['block6e_se_excite[0][0]']      \n","                                                                                                  \n"," block6e_project_bn (BatchNorma  (None, 7, 7, 304)   1216        ['block6e_project_conv[0][0]']   \n"," lization)                                                                                        \n","                                                                                                  \n"," block6e_drop (Dropout)         (None, 7, 7, 304)    0           ['block6e_project_bn[0][0]']     \n","                                                                                                  \n"," block6e_add (Add)              (None, 7, 7, 304)    0           ['block6e_drop[0][0]',           \n","                                                                  'block6d_add[0][0]']            \n","                                                                                                  \n"," block6f_expand_conv (Conv2D)   (None, 7, 7, 1824)   554496      ['block6e_add[0][0]']            \n","                                                                                                  \n"," block6f_expand_bn (BatchNormal  (None, 7, 7, 1824)  7296        ['block6f_expand_conv[0][0]']    \n"," ization)                                                                                         \n","                                                                                                  \n"," block6f_expand_activation (Act  (None, 7, 7, 1824)  0           ['block6f_expand_bn[0][0]']      \n"," ivation)                                                                                         \n","                                                                                                  \n"," block6f_dwconv (DepthwiseConv2  (None, 7, 7, 1824)  45600       ['block6f_expand_activation[0][0]\n"," D)                                                              ']                               \n","                                                                                                  \n"," block6f_bn (BatchNormalization  (None, 7, 7, 1824)  7296        ['block6f_dwconv[0][0]']         \n"," )                                                                                                \n","                                                                                                  \n"," block6f_activation (Activation  (None, 7, 7, 1824)  0           ['block6f_bn[0][0]']             \n"," )                                                                                                \n","                                                                                                  \n"," block6f_se_squeeze (GlobalAver  (None, 1824)        0           ['block6f_activation[0][0]']     \n"," agePooling2D)                                                                                    \n","                                                                                                  \n"," block6f_se_reshape (Reshape)   (None, 1, 1, 1824)   0           ['block6f_se_squeeze[0][0]']     \n","                                                                                                  \n"," block6f_se_reduce (Conv2D)     (None, 1, 1, 76)     138700      ['block6f_se_reshape[0][0]']     \n","                                                                                                  \n"," block6f_se_expand (Conv2D)     (None, 1, 1, 1824)   140448      ['block6f_se_reduce[0][0]']      \n","                                                                                                  \n"," block6f_se_excite (Multiply)   (None, 7, 7, 1824)   0           ['block6f_activation[0][0]',     \n","                                                                  'block6f_se_expand[0][0]']      \n","                                                                                                  \n"," block6f_project_conv (Conv2D)  (None, 7, 7, 304)    554496      ['block6f_se_excite[0][0]']      \n","                                                                                                  \n"," block6f_project_bn (BatchNorma  (None, 7, 7, 304)   1216        ['block6f_project_conv[0][0]']   \n"," lization)                                                                                        \n","                                                                                                  \n"," block6f_drop (Dropout)         (None, 7, 7, 304)    0           ['block6f_project_bn[0][0]']     \n","                                                                                                  \n"," block6f_add (Add)              (None, 7, 7, 304)    0           ['block6f_drop[0][0]',           \n","                                                                  'block6e_add[0][0]']            \n","                                                                                                  \n"," block6g_expand_conv (Conv2D)   (None, 7, 7, 1824)   554496      ['block6f_add[0][0]']            \n","                                                                                                  \n"," block6g_expand_bn (BatchNormal  (None, 7, 7, 1824)  7296        ['block6g_expand_conv[0][0]']    \n"," ization)                                                                                         \n","                                                                                                  \n"," block6g_expand_activation (Act  (None, 7, 7, 1824)  0           ['block6g_expand_bn[0][0]']      \n"," ivation)                                                                                         \n","                                                                                                  \n"," block6g_dwconv (DepthwiseConv2  (None, 7, 7, 1824)  45600       ['block6g_expand_activation[0][0]\n"," D)                                                              ']                               \n","                                                                                                  \n"," block6g_bn (BatchNormalization  (None, 7, 7, 1824)  7296        ['block6g_dwconv[0][0]']         \n"," )                                                                                                \n","                                                                                                  \n"," block6g_activation (Activation  (None, 7, 7, 1824)  0           ['block6g_bn[0][0]']             \n"," )                                                                                                \n","                                                                                                  \n"," block6g_se_squeeze (GlobalAver  (None, 1824)        0           ['block6g_activation[0][0]']     \n"," agePooling2D)                                                                                    \n","                                                                                                  \n"," block6g_se_reshape (Reshape)   (None, 1, 1, 1824)   0           ['block6g_se_squeeze[0][0]']     \n","                                                                                                  \n"," block6g_se_reduce (Conv2D)     (None, 1, 1, 76)     138700      ['block6g_se_reshape[0][0]']     \n","                                                                                                  \n"," block6g_se_expand (Conv2D)     (None, 1, 1, 1824)   140448      ['block6g_se_reduce[0][0]']      \n","                                                                                                  \n"," block6g_se_excite (Multiply)   (None, 7, 7, 1824)   0           ['block6g_activation[0][0]',     \n","                                                                  'block6g_se_expand[0][0]']      \n","                                                                                                  \n"," block6g_project_conv (Conv2D)  (None, 7, 7, 304)    554496      ['block6g_se_excite[0][0]']      \n","                                                                                                  \n"," block6g_project_bn (BatchNorma  (None, 7, 7, 304)   1216        ['block6g_project_conv[0][0]']   \n"," lization)                                                                                        \n","                                                                                                  \n"," block6g_drop (Dropout)         (None, 7, 7, 304)    0           ['block6g_project_bn[0][0]']     \n","                                                                                                  \n"," block6g_add (Add)              (None, 7, 7, 304)    0           ['block6g_drop[0][0]',           \n","                                                                  'block6f_add[0][0]']            \n","                                                                                                  \n"," block6h_expand_conv (Conv2D)   (None, 7, 7, 1824)   554496      ['block6g_add[0][0]']            \n","                                                                                                  \n"," block6h_expand_bn (BatchNormal  (None, 7, 7, 1824)  7296        ['block6h_expand_conv[0][0]']    \n"," ization)                                                                                         \n","                                                                                                  \n"," block6h_expand_activation (Act  (None, 7, 7, 1824)  0           ['block6h_expand_bn[0][0]']      \n"," ivation)                                                                                         \n","                                                                                                  \n"," block6h_dwconv (DepthwiseConv2  (None, 7, 7, 1824)  45600       ['block6h_expand_activation[0][0]\n"," D)                                                              ']                               \n","                                                                                                  \n"," block6h_bn (BatchNormalization  (None, 7, 7, 1824)  7296        ['block6h_dwconv[0][0]']         \n"," )                                                                                                \n","                                                                                                  \n"," block6h_activation (Activation  (None, 7, 7, 1824)  0           ['block6h_bn[0][0]']             \n"," )                                                                                                \n","                                                                                                  \n"," block6h_se_squeeze (GlobalAver  (None, 1824)        0           ['block6h_activation[0][0]']     \n"," agePooling2D)                                                                                    \n","                                                                                                  \n"," block6h_se_reshape (Reshape)   (None, 1, 1, 1824)   0           ['block6h_se_squeeze[0][0]']     \n","                                                                                                  \n"," block6h_se_reduce (Conv2D)     (None, 1, 1, 76)     138700      ['block6h_se_reshape[0][0]']     \n","                                                                                                  \n"," block6h_se_expand (Conv2D)     (None, 1, 1, 1824)   140448      ['block6h_se_reduce[0][0]']      \n","                                                                                                  \n"," block6h_se_excite (Multiply)   (None, 7, 7, 1824)   0           ['block6h_activation[0][0]',     \n","                                                                  'block6h_se_expand[0][0]']      \n","                                                                                                  \n"," block6h_project_conv (Conv2D)  (None, 7, 7, 304)    554496      ['block6h_se_excite[0][0]']      \n","                                                                                                  \n"," block6h_project_bn (BatchNorma  (None, 7, 7, 304)   1216        ['block6h_project_conv[0][0]']   \n"," lization)                                                                                        \n","                                                                                                  \n"," block6h_drop (Dropout)         (None, 7, 7, 304)    0           ['block6h_project_bn[0][0]']     \n","                                                                                                  \n"," block6h_add (Add)              (None, 7, 7, 304)    0           ['block6h_drop[0][0]',           \n","                                                                  'block6g_add[0][0]']            \n","                                                                                                  \n"," block6i_expand_conv (Conv2D)   (None, 7, 7, 1824)   554496      ['block6h_add[0][0]']            \n","                                                                                                  \n"," block6i_expand_bn (BatchNormal  (None, 7, 7, 1824)  7296        ['block6i_expand_conv[0][0]']    \n"," ization)                                                                                         \n","                                                                                                  \n"," block6i_expand_activation (Act  (None, 7, 7, 1824)  0           ['block6i_expand_bn[0][0]']      \n"," ivation)                                                                                         \n","                                                                                                  \n"," block6i_dwconv (DepthwiseConv2  (None, 7, 7, 1824)  45600       ['block6i_expand_activation[0][0]\n"," D)                                                              ']                               \n","                                                                                                  \n"," block6i_bn (BatchNormalization  (None, 7, 7, 1824)  7296        ['block6i_dwconv[0][0]']         \n"," )                                                                                                \n","                                                                                                  \n"," block6i_activation (Activation  (None, 7, 7, 1824)  0           ['block6i_bn[0][0]']             \n"," )                                                                                                \n","                                                                                                  \n"," block6i_se_squeeze (GlobalAver  (None, 1824)        0           ['block6i_activation[0][0]']     \n"," agePooling2D)                                                                                    \n","                                                                                                  \n"," block6i_se_reshape (Reshape)   (None, 1, 1, 1824)   0           ['block6i_se_squeeze[0][0]']     \n","                                                                                                  \n"," block6i_se_reduce (Conv2D)     (None, 1, 1, 76)     138700      ['block6i_se_reshape[0][0]']     \n","                                                                                                  \n"," block6i_se_expand (Conv2D)     (None, 1, 1, 1824)   140448      ['block6i_se_reduce[0][0]']      \n","                                                                                                  \n"," block6i_se_excite (Multiply)   (None, 7, 7, 1824)   0           ['block6i_activation[0][0]',     \n","                                                                  'block6i_se_expand[0][0]']      \n","                                                                                                  \n"," block6i_project_conv (Conv2D)  (None, 7, 7, 304)    554496      ['block6i_se_excite[0][0]']      \n","                                                                                                  \n"," block6i_project_bn (BatchNorma  (None, 7, 7, 304)   1216        ['block6i_project_conv[0][0]']   \n"," lization)                                                                                        \n","                                                                                                  \n"," block6i_drop (Dropout)         (None, 7, 7, 304)    0           ['block6i_project_bn[0][0]']     \n","                                                                                                  \n"," block6i_add (Add)              (None, 7, 7, 304)    0           ['block6i_drop[0][0]',           \n","                                                                  'block6h_add[0][0]']            \n","                                                                                                  \n"," block7a_expand_conv (Conv2D)   (None, 7, 7, 1824)   554496      ['block6i_add[0][0]']            \n","                                                                                                  \n"," block7a_expand_bn (BatchNormal  (None, 7, 7, 1824)  7296        ['block7a_expand_conv[0][0]']    \n"," ization)                                                                                         \n","                                                                                                  \n"," block7a_expand_activation (Act  (None, 7, 7, 1824)  0           ['block7a_expand_bn[0][0]']      \n"," ivation)                                                                                         \n","                                                                                                  \n"," block7a_dwconv (DepthwiseConv2  (None, 7, 7, 1824)  16416       ['block7a_expand_activation[0][0]\n"," D)                                                              ']                               \n","                                                                                                  \n"," block7a_bn (BatchNormalization  (None, 7, 7, 1824)  7296        ['block7a_dwconv[0][0]']         \n"," )                                                                                                \n","                                                                                                  \n"," block7a_activation (Activation  (None, 7, 7, 1824)  0           ['block7a_bn[0][0]']             \n"," )                                                                                                \n","                                                                                                  \n"," block7a_se_squeeze (GlobalAver  (None, 1824)        0           ['block7a_activation[0][0]']     \n"," agePooling2D)                                                                                    \n","                                                                                                  \n"," block7a_se_reshape (Reshape)   (None, 1, 1, 1824)   0           ['block7a_se_squeeze[0][0]']     \n","                                                                                                  \n"," block7a_se_reduce (Conv2D)     (None, 1, 1, 76)     138700      ['block7a_se_reshape[0][0]']     \n","                                                                                                  \n"," block7a_se_expand (Conv2D)     (None, 1, 1, 1824)   140448      ['block7a_se_reduce[0][0]']      \n","                                                                                                  \n"," block7a_se_excite (Multiply)   (None, 7, 7, 1824)   0           ['block7a_activation[0][0]',     \n","                                                                  'block7a_se_expand[0][0]']      \n","                                                                                                  \n"," block7a_project_conv (Conv2D)  (None, 7, 7, 512)    933888      ['block7a_se_excite[0][0]']      \n","                                                                                                  \n"," block7a_project_bn (BatchNorma  (None, 7, 7, 512)   2048        ['block7a_project_conv[0][0]']   \n"," lization)                                                                                        \n","                                                                                                  \n"," block7b_expand_conv (Conv2D)   (None, 7, 7, 3072)   1572864     ['block7a_project_bn[0][0]']     \n","                                                                                                  \n"," block7b_expand_bn (BatchNormal  (None, 7, 7, 3072)  12288       ['block7b_expand_conv[0][0]']    \n"," ization)                                                                                         \n","                                                                                                  \n"," block7b_expand_activation (Act  (None, 7, 7, 3072)  0           ['block7b_expand_bn[0][0]']      \n"," ivation)                                                                                         \n","                                                                                                  \n"," block7b_dwconv (DepthwiseConv2  (None, 7, 7, 3072)  27648       ['block7b_expand_activation[0][0]\n"," D)                                                              ']                               \n","                                                                                                  \n"," block7b_bn (BatchNormalization  (None, 7, 7, 3072)  12288       ['block7b_dwconv[0][0]']         \n"," )                                                                                                \n","                                                                                                  \n"," block7b_activation (Activation  (None, 7, 7, 3072)  0           ['block7b_bn[0][0]']             \n"," )                                                                                                \n","                                                                                                  \n"," block7b_se_squeeze (GlobalAver  (None, 3072)        0           ['block7b_activation[0][0]']     \n"," agePooling2D)                                                                                    \n","                                                                                                  \n"," block7b_se_reshape (Reshape)   (None, 1, 1, 3072)   0           ['block7b_se_squeeze[0][0]']     \n","                                                                                                  \n"," block7b_se_reduce (Conv2D)     (None, 1, 1, 128)    393344      ['block7b_se_reshape[0][0]']     \n","                                                                                                  \n"," block7b_se_expand (Conv2D)     (None, 1, 1, 3072)   396288      ['block7b_se_reduce[0][0]']      \n","                                                                                                  \n"," block7b_se_excite (Multiply)   (None, 7, 7, 3072)   0           ['block7b_activation[0][0]',     \n","                                                                  'block7b_se_expand[0][0]']      \n","                                                                                                  \n"," block7b_project_conv (Conv2D)  (None, 7, 7, 512)    1572864     ['block7b_se_excite[0][0]']      \n","                                                                                                  \n"," block7b_project_bn (BatchNorma  (None, 7, 7, 512)   2048        ['block7b_project_conv[0][0]']   \n"," lization)                                                                                        \n","                                                                                                  \n"," block7b_drop (Dropout)         (None, 7, 7, 512)    0           ['block7b_project_bn[0][0]']     \n","                                                                                                  \n"," block7b_add (Add)              (None, 7, 7, 512)    0           ['block7b_drop[0][0]',           \n","                                                                  'block7a_project_bn[0][0]']     \n","                                                                                                  \n"," block7c_expand_conv (Conv2D)   (None, 7, 7, 3072)   1572864     ['block7b_add[0][0]']            \n","                                                                                                  \n"," block7c_expand_bn (BatchNormal  (None, 7, 7, 3072)  12288       ['block7c_expand_conv[0][0]']    \n"," ization)                                                                                         \n","                                                                                                  \n"," block7c_expand_activation (Act  (None, 7, 7, 3072)  0           ['block7c_expand_bn[0][0]']      \n"," ivation)                                                                                         \n","                                                                                                  \n"," block7c_dwconv (DepthwiseConv2  (None, 7, 7, 3072)  27648       ['block7c_expand_activation[0][0]\n"," D)                                                              ']                               \n","                                                                                                  \n"," block7c_bn (BatchNormalization  (None, 7, 7, 3072)  12288       ['block7c_dwconv[0][0]']         \n"," )                                                                                                \n","                                                                                                  \n"," block7c_activation (Activation  (None, 7, 7, 3072)  0           ['block7c_bn[0][0]']             \n"," )                                                                                                \n","                                                                                                  \n"," block7c_se_squeeze (GlobalAver  (None, 3072)        0           ['block7c_activation[0][0]']     \n"," agePooling2D)                                                                                    \n","                                                                                                  \n"," block7c_se_reshape (Reshape)   (None, 1, 1, 3072)   0           ['block7c_se_squeeze[0][0]']     \n","                                                                                                  \n"," block7c_se_reduce (Conv2D)     (None, 1, 1, 128)    393344      ['block7c_se_reshape[0][0]']     \n","                                                                                                  \n"," block7c_se_expand (Conv2D)     (None, 1, 1, 3072)   396288      ['block7c_se_reduce[0][0]']      \n","                                                                                                  \n"," block7c_se_excite (Multiply)   (None, 7, 7, 3072)   0           ['block7c_activation[0][0]',     \n","                                                                  'block7c_se_expand[0][0]']      \n","                                                                                                  \n"," block7c_project_conv (Conv2D)  (None, 7, 7, 512)    1572864     ['block7c_se_excite[0][0]']      \n","                                                                                                  \n"," block7c_project_bn (BatchNorma  (None, 7, 7, 512)   2048        ['block7c_project_conv[0][0]']   \n"," lization)                                                                                        \n","                                                                                                  \n"," block7c_drop (Dropout)         (None, 7, 7, 512)    0           ['block7c_project_bn[0][0]']     \n","                                                                                                  \n"," block7c_add (Add)              (None, 7, 7, 512)    0           ['block7c_drop[0][0]',           \n","                                                                  'block7b_add[0][0]']            \n","                                                                                                  \n"," top_conv (Conv2D)              (None, 7, 7, 2048)   1048576     ['block7c_add[0][0]']            \n","                                                                                                  \n"," top_bn (BatchNormalization)    (None, 7, 7, 2048)   8192        ['top_conv[0][0]']               \n","                                                                                                  \n"," top_activation (Activation)    (None, 7, 7, 2048)   0           ['top_bn[0][0]']                 \n","                                                                                                  \n"," pooling_layer (GlobalAveragePo  (None, 2048)        0           ['top_activation[0][0]']         \n"," oling2D)                                                                                         \n","                                                                                                  \n"," dense (Dense)                  (None, 32)           65568       ['pooling_layer[0][0]']          \n","                                                                                                  \n"," dense_1 (Dense)                (None, 10)           330         ['dense[0][0]']                  \n","                                                                                                  \n"," activation (Activation)        (None, 10)           0           ['dense_1[0][0]']                \n","                                                                                                  \n","==================================================================================================\n","Total params: 28,579,425\n","Trainable params: 65,898\n","Non-trainable params: 28,513,527\n","__________________________________________________
…
